mini_difusao_mnist.pth (torch, 60007 bytes, 7 tensors)

time_mlp.0.weight f4 [64, 64]
0	0xbb66239f	-0.0035116447
1	0x3bc1efeb	0.005918493
2	0xbb56116c	-0.0032664193
3	0xbbfcffd3	-0.0077209263
4	0xbcc12fe2	-0.023582403
5	0xbcfe2357	-0.03102271
6	0xbca5ae9d	-0.020224864
7	0xbd63c5be	-0.055608504
8	0xbdaca024	-0.08428982
9	0xbdce6a21	-0.10078836
10	0x3cd68385	0.02618576
11	0xbdb5eb1a	-0.08882733
12	0xbe058f2c	-0.13042897
13	0xbdeef3bc	-0.116675824
14	0x3e6471cf	0.2230904
15	0x3e97d489	0.2965434
16	0x3ee878c8	0.4540465
17	0x3ec73d59	0.38913992
18	0x3ea26ae6	0.31722182
19	0x3ed1bcaa	0.40964252
20	0x3ea47e07	0.321274
21	0x3ebac319	0.36476973
22	0x3ea86cc0	0.3289547
23	0x3eecf491	0.4628034
24	0x3e90055e	0.28129095
25	0x3ea50df6	0.32237214
26	0x3eb07ded	0.34471074
27	0x3e9c1405	0.30484024
28	0x3ec8969f	0.39177415
29	0x3e83512e	0.25647873
30	0x3efc4cc6	0.49277323
31	0x3e8c18c0	0.27362633
32	0x3b16191f	0.0022903157
33	0xbbfffac1	-0.0078118746
34	0xbafe7da6	-0.0019416108
35	0x3b4f3993	0.003162001
36	0x3a5ba33b	0.000837851
37	0x3b40cb9b	0.0029418233
38	0xbb9109b7	-0.004426207
39	0xbd008ce6	-0.03138437
40	0xbd385ac4	-0.045008436
41	0x3d380b6d	0.04493277
42	0xbe112eb8	-0.14177978
43	0x3e1aafb1	0.15106083
44	0xbdcdd314	-0.100500256
45	0xbe9f1101	-0.3106766
46	0xbe318e04	-0.17339331
47	0xbe1e68bd	-0.15469642
48	0xbca1e0a2	-0.019760434
49	0xbdb684bb	-0.08912035
50	0xbdc38881	-0.095475204
51	0x3b2feadf	0.0026842875
52	0xbd050867	-0.032478716
53	0x3e30ea8d	0.17276974
54	0x3de129e5	0.10994319
55	0x3e02d6ce	0.12777254
56	0x3deeec83	0.11666205
57	0x3d9ac9aa	0.075579956
58	0x3e3425be	0.17592523
59	0xbc2c6f4d	-0.010524583
60	0x3db0abcf	0.0862652
61	0xbbe0f3b0	-0.0068649873
62	0x3defaca5	0.11702851
63	0x3d1138c9	0.035454545
64	0x3ce7d121	0.028297963
65	0xbc90282b	-0.017597279
66	0x3db9e3ac	0.09076628
67	0xbd9ed1a6	-0.07754831
68	0xbd92fa12	-0.071766034
69	0xbd900ddd	-0.07033894
70	0x3dc75ea3	0.097348474
71	0x3d62b71e	0.055350415
72	0x3de35ba1	0.11101461
73	0xbdc770f1	-0.09738339
74	0xbdec81b3	-0.11548176
75	0xbdcddaa7	-0.1005147
76	0xbdb9c432	-0.090706244
77	0x3d322395	0.043490965
78	0x3d1948a3	0.037422787
79	0x3dc58004	0.09643558
80	0xbd9384d9	-0.07203073
81	0xbdbde246	-0.09271674
82	0x3d70de90	0.058806002
83	0xbd6dc4c6	-0.058048986
84	0x3d8bf501	0.0683384
85	0xbd1855e1	-0.037191276
86	0x3d83062a	0.0639766
87	0xbdd65295	-0.1046497
88	0xbd909b54	-0.070608765
89	0x3cfa8ace	0.030583765
90	0x3c9ad9f3	0.018902754
91	0xbd2156d2	-0.03938944
92	0x3d893428	0.06699401
93	0x3d9ea792	0.07746805
94	0xbdc900bc	-0.09814593
95	0xbd980124	-0.074220926
96	0x3de072b4	0.10959378
97	0xbd2787fb	-0.040901165
98	0xbd2c0843	-0.042000066
99	0xbde4af7c	-0.111662835
100	0xbd9f3ffc	-0.07775876
101	0x3caf88a8	0.021427467
102	0xbcab0106	-0.020874511
103	0xbdad632d	-0.08466182
104	0xba933002	-0.0011229517
105	0xbdc32f40	-0.095304966
106	0xbdcd934b	-0.100378595
107	0xbd7bc036	-0.061462604
108	0xbdcf1453	-0.101112984
109	0xbd82ea07	-0.063922934
110	0x3df375ff	0.1188774
111	0x3c89e1e3	0.016831344
112	0x3d01266e	0.03153079
113	0xbdfd4482	-0.123665825
114	0xbdb6b9ee	-0.08922182
115	0xbd47b3a6	-0.04875531
116	0x3c4aed0b	0.012385617
117	0xbdeff062	-0.11715771
118	0xbd79faef	-0.061030325
119	0xbda7f32c	-0.08200678
120	0xbbdfbce1	-0.006827936
121	0xbd5be7c9	-0.053687844
122	0xbc81bd28	-0.015837267
123	0xbdbc2b23	-0.09187915
124	0xbdbe69a2	-0.092974916
125	0xbda40be6	-0.08010082
126	0xbd4ca5d9	-0.049962852
127	0xbdd8c06b	-0.10583576
128	0x3daf2046	0.085510775
129	0x3a5e3197	0.00084760174
130	0x3d80440f	0.06262981
131	0x3d638e77	0.055555787
132	0xbda20f97	-0.0791313
133	0x3d2d08a3	0.042244565
134	0xbbfe0ac1	-0.007752747
135	0xbd3bd425	-0.045856614
136	0xbd8ed373	-0.069739245
137	0xbda99c04	-0.08281711
138	0x3c554b04	0.013018373
139	0xbd783f51	-0.06060726
140	0x3d8b432b	0.06799921
141	0xbde948e7	-0.11390858
142	0x3d84f25d	0.064915396
143	0xbdf7a1df	-0.12091421
144	0xbd515e18	-0.051115125
145	0xbb6aecbc	-0.003584667
146	0x3d0e5e3b	0.034757834
147	0x3d919bfb	0.07109829
148	0x3dac18f9	0.08403201
149	0xbe040f77	-0.12896524
150	0x3ad1f3b7	0.0016018067
151	0xbdab440f	-0.083625905
152	0xbd326bec	-0.043559954
153	0xbdfcc59e	-0.1234238
154	0x3dac055a	0.08399458
155	0xbdf90cb7	-0.12160628
156	0x3d17531f	0.036944505
157	0x3c6681d9	0.014069044
158	0x3c304ac5	0.010760014
159	0xbdc78db9	-0.09743828
160	0x3d29cdfb	0.041456204
161	0x3bc0e277	0.0058863717
162	0xbb001e35	-0.0019549255
163	0xbdc4a779	-0.096022554
164	0x3d662460	0.056187034
165	0xbcac44ca	-0.021028895
166	0xbd3e7497	-0.046497907
167	0x3ddccb05	0.107809104
168	0x3c51383b	0.012769754
169	0xbda1af5c	-0.07894775
170	0xbc8103db	-0.015748909
171	0xbcfc4952	-0.03079668
172	0x3d9e8a0e	0.077411756
173	0xbbd53ec0	-0.0065077245
174	0xbd3a257b	-0.0454459
175	0xbd2d5652	-0.04231865
176	0xbdf76fc3	-0.12081864
177	0x3c77ea7a	0.015131587
178	0x3d891612	0.06693663
179	0xbe172a71	-0.14762284
180	0xba7d1176	-0.0009653786
181	0x3d0d8568	0.034551054
182	0xbbf1829b	-0.0073703057
183	0xbd98b284	-0.07455924
184	0x3d1028cf	0.035195168
185	0x3d11faa7	0.03563943
186	0x3c88b97e	0.016690012
187	0xbd550f7e	-0.052016728
188	0xbd8155d7	-0.06315201
189	0xbc88a369	-0.016679483
190	0xbd558a6e	-0.05213397
191	0xbd89d5d7	-0.0673024
192	0x3d8eb4db	0.06968089
193	0x3dc6247d	0.09674928
194	0xbc99071f	-0.018680153
195	0xbc96c5d8	-0.018404886
196	0x3c279cd1	0.010230259
197	0xbc9593e7	-0.018259002
198	0x3cc7dd57	0.024397535
199	0x3d2f1ec0	0.042753935
200	0xbdd4cad0	-0.10390246
201	0xbd4bafa8	-0.049728066
202	0x3ddafa99	0.10692329
203	0x3d2055ae	0.03914421
204	0x3b928139	0.004470971
205	0xbd8515e8	-0.06498319
206	0xbdaff2f9	-0.08591265
207	0xbdfb4a15	-0.122699894
208	0xbd52e6d8	-0.05148968
209	0x3d00edf6	0.031476937
210	0x3d8d41d2	0.0689732
211	0x3d40752d	0.046986748
212	0xbdf8401b	-0.12121602
213	0xbdafe819	-0.08589191
214	0xbcf96dbc	-0.030447833
215	0x3de1afcd	0.110198595
216	0x3bf141ca	0.007362579
217	0xbd307f8f	-0.0430904
218	0x3d27eb66	0.040995978
219	0xbd6ee92a	-0.05832783
220	0xbdbba51e	-0.09162353
221	0x3da4e80d	0.08052073
222	0xbd8a5835	-0.067551054
223	0xbd1282c7	-0.03576925
224	0xbded1767	-0.11576729
225	0x3d996469	0.07489855
226	0x3dd2cac5	0.102925815
227	0x3d1146db	0.035467964
228	0xbd9d17eb	-0.076705776
229	0xbe01a235	-0.12659533
230	0xbdddd6c3	-0.10831978
231	0x3db3b99f	0.08775639
232	0x3d67f0f3	0.05662627
233	0x3dc12e25	0.094326295
234	0x3d9c201e	0.07623313
235	0x3caea817	0.021320386
236	0xbc2bdf62	-0.01049027
237	0xbdacf3e5	-0.08444957
238	0xbdc55d7d	-0.09636972
239	0xbdd9e046	-0.1063848
240	0x3d596a6b	0.053080004
241	0xbd9379c2	-0.07200958
242	0xbd13016f	-0.03589004
243	0xbda954a2	-0.082680956
244	0xbd094e22	-0.03352178
245	0xbdca2f4d	-0.09872303
246	0xbdbd46e6	-0.092420384
247	0x3cfba9b6	0.030720573
248	0xbd442b24	-0.047892705
249	0x3d8809c1	0.066424854
250	0xbd5041f6	-0.050844155
251	0xbdd1cb7c	-0.1024389
252	0xbd065715	-0.03279789
253	0xbd9218d1	-0.071336396
254	0xbd48a53e	-0.048985712
255	0xbe04db39	-0.12974252

time_mlp.0.bias f4 [64]
0	0xbc24556c	-0.010030132
1	0x3dbf5aa4	0.0934346
2	0x3d9a5b78	0.075369775
3	0x3db38b72	0.087668315
4	0xbd9fcefa	-0.078031495
5	0x3d6f3dd2	0.058408566
6	0xbdfc46ab	-0.12318166
7	0x3d179b1c	0.03701316
8	0xbcf9d57f	-0.03049731
9	0xbdd423f8	-0.10358423
10	0xbd1d9a6f	-0.038477357
11	0xbdfc30fb	-0.1231403
12	0xbbcfdaed	-0.0063432367
13	0xbda97000	-0.082733154
14	0xbd9851a2	-0.07437445
15	0x3e14e8ab	0.14541881
16	0x3ca2aabf	0.019856809
17	0x3cb3e208	0.021958366
18	0xbc8327fc	-0.016010277
19	0x3d81e14e	0.063418016
20	0x3db78f96	0.08962934
21	0x3d873a66	0.066029355
22	0x3c2fbb2a	0.010725776
23	0xbd63d5f2	-0.055623956
24	0x3e19969a	0.14998856
25	0xbcc52f3c	-0.024070375
26	0xbd9e8b2d	-0.077413894
27	0x3e10408b	0.14087121
28	0xbd1ac53f	-0.037785765
29	0xbde38f20	-0.11111283
30	0x3d901e2f	0.07037007
31	0x3cc03b4d	0.023465777
32	0xbd4be504	-0.049778953
33	0xbd745c38	-0.05965826
34	0xbd59e308	-0.05319503
35	0xbd4f5740	-0.050620317
36	0x3c493bf0	0.012282357
37	0x3df7503e	0.12075852
38	0xbd960cf4	-0.07326689
39	0xbd6edbb0	-0.05831498
40	0xbdab9bda	-0.08379336
41	0xbb9b6ce0	-0.0047432035
42	0x3c0f97e0	0.008764237
43	0xbdafb77a	-0.08579917
44	0x3d69ddb4	0.0570962
45	0xbde5991a	-0.112108424
46	0x3decf1aa	0.11569531
47	0x3cc0b470	0.02352354
48	0xbc4e6890	-0.012598172
49	0xbd375464	-0.044758216
50	0x3d65e350	0.056124985
51	0x3dbaf09c	0.09127924
52	0xbda77256	-0.08176105
53	0xbd005634	-0.03133221
54	0x3dbc74b6	0.09201948
55	0xbcbfe798	-0.023425862
56	0xbdbc80cc	-0.092042536
57	0xbd248a10	-0.04017073
58	0x3b8d7d00	0.0043178797
59	0xbcbf2ac8	-0.02333583
60	0xbdaf6f8e	-0.08566199
61	0xbda061ca	-0.07831152
62	0x3d0a7064	0.03379859
63	0x3dafa6e0	0.08576751

conv1.weight f4 [32, 1, 3, 3]
0	0xbc34a80b	-0.011026393
1	0x3e1892cf	0.14899753
2	0x3e63aa92	0.22233036
3	0x3ad6c142	0.00163845
4	0x3eeee7e9	0.46661308
5	0x3f2b055d	0.6680506
6	0x3e42ad06	0.19011316
7	0x3e592b96	0.21208033
8	0x3ddb967a	0.107220605
9	0xbe98fdfd	-0.29881278
10	0xbd8858f5	-0.06657592
11	0xbdac8c5a	-0.084252074
12	0xbee6e2a2	-0.45094782
13	0xbea9eb52	-0.33187348
14	0xbe895025	-0.26818958
15	0x3d8b4b6d	0.06801496
16	0xbd3d7407	-0.04625323
17	0x3e07fa9b	0.13279192
18	0x3c722984	0.014780406
19	0x3eb3eeab	0.35143027
20	0x3e042a12	0.12906674
21	0x3e969dfe	0.29417413
22	0x3f7f9185	0.9983142
23	0x3e08baf4	0.13352567
24	0xbbd03934	-0.0063544754
25	0x3e3dab0f	0.18522285
26	0x3caaed90	0.020865232
27	0xbe6ba527	-0.2301222
28	0x3ce6ad52	0.028158817
29	0xbda2182b	-0.07914766
30	0x3e91c826	0.28473014
31	0x3f6b12e5	0.91825706
32	0x3ebe280e	0.37139934
33	0x3e17f3e1	0.14839126
34	0x3e879a49	0.26484898
35	0x3dc0b458	0.09409398
36	0xbdc4454b	-0.09583529
37	0xbc9a975b	-0.018871
38	0xbdf6851b	-0.120371066
39	0xbe9e0fcd	-0.3087143
40	0xbea18234	-0.3154465
41	0x3c92ae89	0.01790549
42	0x3a32e11b	0.00068237045
43	0xbe960df8	-0.29307532
44	0xbdb8f05a	-0.090302184
45	0x3de84343	0.11340954
46	0xbe82cbe3	-0.25546178
47	0x3e310301	0.17286302
48	0xbeaf7be9	-0.34274223
49	0xbd7d0461	-0.061771754
50	0xbea6e1d1	-0.3259416
51	0xbe9acc20	-0.3023386
52	0x3d17e5b8	0.03708431
53	0x3ee5015e	0.44727606
54	0x3df66979	0.12031836
55	0x3e93f388	0.28896737
56	0x3e789d94	0.24278861
57	0xbe5a0670	-0.21291518
58	0x3e77677c	0.2416057
59	0x3e66f20e	0.22553274
60	0xbf08a95d	-0.5338343
61	0xbed31c06	-0.41232318
62	0x3dac83e5	0.084235944
63	0x3d176cae	0.03696888
64	0xbe97a34d	-0.29616776
65	0xbec7d088	-0.39026284
66	0x3e99b277	0.3001897
67	0x3cb07cb2	0.021543834
68	0xbdb7d4b6	-0.08976118
69	0xbe9a8a88	-0.30183816
70	0x3e919af4	0.28438532
71	0xbe2e9582	-0.1704922
72	0x3d988d33	0.074488066
73	0xbcce346b	-0.02517148
74	0x3c69cf1d	0.014270571
75	0x3f1cc036	0.6123079
76	0xbec7062f	-0.38871905
77	0xbe513ca5	-0.2043329
78	0x3efa8d36	0.4893586
79	0xbed70012	-0.4199224
80	0x3d2438e5	0.04009332
81	0x3dc36bbd	0.09542034
82	0xbe9bb421	-0.30410865
83	0x3e46983d	0.19394012
84	0x3d93edd4	0.072230965
85	0xbf0b55b2	-0.54427636
86	0x3f067154	0.52516675
87	0xbdb671ae	-0.089084014
88	0x3e9e1812	0.3087774
89	0xbd420541	-0.04736829
90	0x3eb08e7b	0.34483704
91	0x3d719ccf	0.058987435
92	0xbd31cc1b	-0.04340754
93	0x3e5c7ff2	0.21533182
94	0x3e32ea93	0.17472295
95	0xbe4420f5	-0.19153197
96	0x3dfac5be	0.122447476
97	0x3eab7fa0	0.33495808
98	0xbdcf0771	-0.10108841
99	0x3e72c2d0	0.23707128
100	0x3cf76268	0.030198291
101	0xbe16b7bd	-0.14718528
102	0xbe6c7b6e	-0.2309396
103	0x3ef53af4	0.4789654
104	0xbd9f953c	-0.07792136
105	0x3e58d097	0.2117332
106	0xbed311ed	-0.41224614
107	0x3da5415c	0.08069107
108	0xbd951045	-0.07278494
109	0x3d971009	0.07376105
110	0x3e9017fe	0.28143305
111	0x3e373057	0.17889534
112	0xbe964812	-0.2935186
113	0xbeea1099	-0.45715788
114	0xbd4473c4	-0.047961965
115	0xbea33f44	-0.31884205
116	0x3ec3b31f	0.38222596
117	0xbda20daa	-0.079127625
118	0x3d1918dc	0.037377223
119	0x3e336aa0	0.17521143
120	0x3df8cbe9	0.12148268
121	0xbf17f3a3	-0.59356135
122	0xbe121383	-0.14265256
123	0xbc7bc8fb	-0.015367742
124	0x3e4b967a	0.19881621
125	0xbd5d80d9	-0.054077957
126	0x3e5b6f78	0.2142924
127	0x3f5938b3	0.8485214
128	0x3e6cb297	0.23115002
129	0x3e96cff5	0.29455534
130	0x3e9bdccd	0.30441895
131	0x3c766f5d	0.0150411995
132	0x3a9fc979	0.0012190781
133	0xbe2f3988	-0.1711179
134	0xbe41c27f	-0.1892185
135	0xbe611a9f	-0.21982811
136	0x3cebc2c1	0.02877939
137	0x3efd34af	0.49454257
138	0xbed122b2	-0.40846783
139	0xbea37f8b	-0.31933245
140	0x3f045744	0.51695657
141	0x3b26efe0	0.0025472566
142	0xbd9282d1	-0.071538575
143	0x3db3d341	0.08780528
144	0xbe3c779f	-0.18405007
145	0x3e8925df	0.26786706
146	0xbd290807	-0.04126742
147	0xbdb71494	-0.08939472
148	0x3e845b90	0.25851107
149	0xbebe358f	-0.37150237
150	0x3cae7347	0.021295203
151	0xbb768a44	-0.0037619034
152	0xbcdfbc14	-0.027311362
153	0x3d9c19fe	0.07622145
154	0xbebd4b9b	-0.36971745
155	0xbe34b313	-0.17646436
156	0xbe444d5b	-0.19170134
157	0x3f102081	0.562996
158	0x3e6bb2cc	0.23017424
159	0xbe00b1bf	-0.12567805
160	0x3e184d45	0.14873226
161	0x3c35aa7b	0.011088009
162	0x3e729575	0.23689826
163	0x3ec7768c	0.38957632
164	0xbe56345e	-0.20918414
165	0x3f44532a	0.766894
166	0x3e3ae6b7	0.18252073
167	0xbd8422db	-0.06451961
168	0x3d4dc1a8	0.050233513
169	0x3edcb0b0	0.43103552
170	0xbdc87c4b	-0.09789332
171	0xbe6812c9	-0.22663416
172	0x3ccba942	0.024860982
173	0x3ed21beb	0.41036925
174	0xbe678a88	-0.22611439
175	0xbe99e0b2	-0.3005424
176	0xbec9fe8b	-0.39452013
177	0xbdfc19ea	-0.1230963
178	0xbeb567b9	-0.35430697
179	0x3e1a9a04	0.15097815
180	0x3d446bbb	0.047954302
181	0x3e88313c	0.26600063
182	0x3e28edf6	0.16497025
183	0xbdad9cb7	-0.084771566
184	0x3eadb467	0.339267
185	0x3e343ab8	0.17600524
186	0xbec91a59	-0.39277914
187	0x3df4feed	0.11962686
188	0xbe68d4a9	-0.22737373
189	0x3e929723	0.28630933
190	0xbe8eca4e	-0.2788872
191	0x3c4610aa	0.012088934
192	0xbcbac6ff	-0.022799967
193	0x3dc155f6	0.09440224
194	0x3de71483	0.11283209
195	0xbec3048a	-0.380894
196	0xbdb05289	-0.08609492
197	0x3ebb4854	0.3657862
198	0xbe83b7c8	-0.2572615
199	0xbebd445c	-0.36966217
200	0xbe611a12	-0.21982601
201	0xbe338b31	-0.17533566
202	0xbdd00fcb	-0.10159262
203	0x3d96e26e	0.07367407
204	0x3d93adf0	0.0721091
205	0xbd0b2cb9	-0.033978198
206	0x3e9d3deb	0.30711302
207	0x3ddb2064	0.106995374
208	0xbe53deb8	-0.20690429
209	0xbdb779e0	-0.08958793
210	0xbe3af3b6	-0.18257031
211	0xbe78df56	-0.24303946
212	0xbec2bde8	-0.38035512
213	0x3e012295	0.12610848
214	0xbeae5245	-0.34047142
215	0x3de5b153	0.112154625
216	0x3e7a3a28	0.24436247
217	0xbe91cf1c	-0.28478324
218	0xbe805a63	-0.2506896
219	0xbebb0466	-0.36526793
220	0x3c7e9af4	0.015539873
221	0x3d336fbf	0.04380774
222	0xbdfb2394	-0.12262645
223	0x3e9bf5dd	0.30461016
224	0x3d8e2d23	0.06942203
225	0xbec2d58f	-0.38053557
226	0xbe18a259	-0.1490568
227	0xbe34636b	-0.1761605
228	0xbe008071	-0.12548997
229	0x3e5bd1b3	0.21466713
230	0xbddeb0e8	-0.10873586
231	0xbe7c3244	-0.2462855
232	0x3e7c21fa	0.24622336
233	0xbea79343	-0.3272954
234	0xbd83d988	-0.06437975
235	0x3e3e77a0	0.18600321
236	0x3e8b0e61	0.27159408
237	0x3f013d9f	0.5048465
238	0xbdefa19d	-0.11700747
239	0x3e177062	0.14788964
240	0xbea57db1	-0.32322457
241	0xbe8a3a02	-0.2699738
242	0xbe5e247b	-0.21693604
243	0xbd06ecd9	-0.03294072
244	0xbebb8600	-0.3662567
245	0xbcf3d662	-0.029765312
246	0x3e265774	0.16244298
247	0x3f07cdf1	0.53048617
248	0x3d91abc0	0.07112837
249	0x3e6060ef	0.21911977
250	0xbf01203d	-0.50439817
251	0xbcf0a732	-0.0293766
252	0x3e30e141	0.17273428
253	0x3d91f214	0.07126251
254	0x3dc5aaeb	0.09651741
255	0xbea2d5b8	-0.3180368

conv1.bias f4 [32]
0	0xbedbd342	-0.42934614
1	0xbe82438d	-0.25442162
2	0xbf3f9359	-0.7483421
3	0x3f2cf03d	0.67554075
4	0xbeac172f	-0.33611438
5	0xbec3f864	-0.38275445
6	0xbddf5578	-0.10904974
7	0xbebe28bf	-0.37140462
8	0x3b757ed2	0.0037459624
9	0x3ea4fdbb	0.3222483
10	0x3ec150fe	0.37757105
11	0x3ec25b38	0.3796022
12	0xbe34480e	-0.17605612
13	0xbe202ac3	-0.15641312
14	0xbecccfbb	-0.40002236
15	0x3e1f3d72	0.15550783
16	0xbe121816	-0.14267
17	0x3e46762c	0.19381016
18	0xbeebb51d	-0.46036616
19	0x3d526a1f	0.051370736
20	0x3ee2ac09	0.44271877
21	0x3e7c71fe	0.2465286
22	0x3e777777	0.24166666
23	0xbea95d3b	-0.33078942
24	0xbbd6f626	-0.006560105
25	0xbe276242	-0.16346076
26	0x3e2a1df0	0.16612983
27	0x3d670c49	0.0564082
28	0xbe425c8f	-0.18980621
29	0xbec928a4	-0.3928882
30	0xbeda2f74	-0.4261433
31	0x3e91b645	0.28459373

conv2.weight f4 [32, 32, 3, 3]
0	0xbdc67aaa	-0.09691365
1	0xbe7b47f1	-0.24539162
2	0xbd8b580e	-0.068039045
3	0x3c23036b	0.009949545
4	0xbe122ba6	-0.14274463
5	0xbdf0fdf3	-0.11767187
6	0xbde8f0e7	-0.113740735
7	0xbe8eca71	-0.27888826
8	0xbe60932f	-0.21931146
9	0x3d1af4f0	0.037831247
10	0xbd7e7a44	-0.06212832
11	0x3d8db9ed	0.06920228
12	0xbdd3e43f	-0.10346269
13	0x3cf080c2	0.029358272
14	0x3e06af94	0.13152915
15	0xbc280989	-0.01025618
16	0x3bc377c3	0.0059652044
17	0xbbc6b0d5	-0.0060635605
18	0xbc8db1c4	-0.01729668
19	0xbc44fc77	-0.012023083
20	0xbd86451a	-0.06556149
21	0xbd197513	-0.037465166
22	0x3d5c28bc	0.053749785
23	0xbbd18260	-0.0063937157
24	0xbd5be8ac	-0.05368869
25	0xbc8e20f7	-0.017349703
26	0xbd1d71af	-0.038438495
27	0xbdfc8da4	-0.12331703
28	0xbe4425b4	-0.19155008
29	0xbd954935	-0.07289354
30	0xbefc600f	-0.49292037
31	0xbdd28bc4	-0.102805644
32	0xbccf433f	-0.02530062
33	0xbe8632b5	-0.2621056
34	0x3cfa6fd7	0.030570908
35	0xbe233642	-0.15938666
36	0xbe014082	-0.12622264
37	0xbd54dc9c	-0.051968202
38	0x3d825633	0.063640974
39	0xbb99620a	-0.0046808766
40	0xbdd3ae74	-0.10336009
41	0x3ce676f6	0.028132897
42	0xbde1e451	-0.11029876
43	0x3b4146e2	0.0029491712
44	0x3c7590dc	0.01498815
45	0x3d1a4b1e	0.037669294
46	0xbe25fe25	-0.1621023
47	0xbd909743	-0.07060101
48	0xbe5c4d7c	-0.21513933
49	0x3d8c5bc6	0.06853442
50	0xbddbbcc9	-0.10729367
51	0x3dd7fb85	0.105460204
52	0xbe6db797	-0.23214565
53	0x3e4a1cb6	0.19737515
54	0x3d5455bf	0.051839586
55	0xbc0ffb5f	-0.008787959
56	0x3e159f06	0.14611444
57	0xbdb6eab0	-0.08931482
58	0xbdb46839	-0.088089414
59	0xbe2902d5	-0.16504987
60	0xbe95c462	-0.2925139
61	0xbde04c67	-0.109520726
62	0xbe042406	-0.12904367
63	0xbcc4d8e2	-0.024029199
64	0x3e1de27a	0.15418425
65	0xbe59222d	-0.21204443
66	0x3de34dec	0.11098847
67	0xbe33a405	-0.17543037
68	0x3db76179	0.08954138
69	0xbe8bffb3	-0.2734352
70	0x3e2b7cd4	0.16746837
71	0x3bd11588	0.0063807406
72	0xbd8c370c	-0.06846437
73	0xbed434bd	-0.41446486
74	0xbe3d03e5	-0.18458517
75	0xbc068f48	-0.008212872
76	0xbeb7bcf9	-0.35886362
77	0xbf2bf7f9	-0.6717525
78	0x3c9bcf44	0.01901973
79	0xbe724a82	-0.23661235
80	0xbe70a27e	-0.23499486
81	0xbd1becae	-0.038067512
82	0x3e06f27c	0.13178438
83	0xbe3be90a	-0.18350616
84	0x3db0dddc	0.08636066
85	0xbec27e8a	-0.37987167
86	0x3e9a8468	0.30179143
87	0xbe732a63	-0.23746638
88	0x3c68bd4e	0.01420529
89	0x3d4ef180	0.05052328
90	0xbbe58c5e	-0.0070052585
91	0xbd45e665	-0.048315424
92	0x3c1555ae	0.009114666
93	0xbd3db811	-0.046318118
94	0x3c9db4aa	0.019251186
95	0xbd2c0a0c	-0.04200177
96	0xbd71e953	-0.059060406
97	0xbdaeb752	-0.08531059
98	0xbd506f7f	-0.05088758
99	0xbd126f18	-0.03575048
100	0xbdfd1cc8	-0.12359005
101	0x3e0b0c2a	0.13578859
102	0x3d8cf254	0.06882158
103	0x3e145e1b	0.14489023
104	0xbe655192	-0.22394398
105	0xbc627236	-0.013821175
106	0xbd89ee63	-0.06734922
107	0x3ddb0af4	0.106954485
108	0x3c971a07	0.018445028
109	0xbe61f711	-0.22066905
110	0x3e3ef3ae	0.18647644
111	0xbeb50f47	-0.35363218
112	0x3e5e45d6	0.21706328
113	0x3e008144	0.12549311
114	0x3e04db43	0.12974267
115	0xbe0fdfc9	-0.14050211
116	0xbe1db323	-0.15400366
117	0x3d474a8a	0.04865507
118	0x3e2a2a10	0.16617608
119	0xbe47f052	-0.19525269
120	0xbe459870	-0.19296432
121	0xbe62d179	-0.2215022
122	0x3e9504e2	0.29105288
123	0x3c96d2f6	0.01841114
124	0x3c4adaee	0.0123812985
125	0xbe30d405	-0.17268379
126	0x3e20b69c	0.1569466
127	0x3e0399a4	0.12851578
128	0x3ce8a938	0.028401002
129	0xbd4c35f0	-0.049856126
130	0xbdf25d56	-0.11834209
131	0xbd44d3fb	-0.048053723
132	0xbea048fe	-0.3130569
133	0x3cabc4ec	0.020967923
134	0x3d0d9803	0.034568798
135	0xbde22fb4	-0.11044255
136	0xbd851360	-0.06497836
137	0x3bdaf1dd	0.0066816644
138	0xbcea5dec	-0.028609239
139	0xbeb282aa	-0.34865314
140	0x3dbf4763	0.09339788
141	0xbe0b4120	-0.13599062
142	0xbe7ab1ee	-0.24481937
143	0xbc996b20	-0.018727839
144	0x3cffef1b	0.031241944
145	0x3d3806be	0.044928305
146	0x3e08c9dd	0.13358255
147	0x3db5ca2a	0.0887645
148	0x3e0bac65	0.13639982
149	0x3d742db0	0.059613883
150	0x3dd3cc82	0.10341741
151	0x3dc78a40	0.09743166
152	0xbd35aa2e	-0.04435175
153	0xbd2135b4	-0.039357856
154	0xbe0aa06b	-0.13537757
155	0xbb80d4ed	-0.0039316327
156	0x3e8abecb	0.27098688
157	0xbdb66012	-0.08905043
158	0xbe7bf447	-0.24604903
159	0xbe2b410d	-0.16724034
160	0xbe840220	-0.2578287
161	0x3e800234	0.2500168
162	0xbd19a65f	-0.03751218
163	0xbd42cb10	-0.047556937
164	0xba8b9f53	-0.0010652341
165	0x3bca7d23	0.0061794682
166	0xbb8c9061	-0.0042896722
167	0x3de3833b	0.111090146
168	0xbcc72485	-0.024309406
169	0x3d4821c1	0.048860315
170	0xba6d3c8f	-0.00090498565
171	0xbd5b9c5c	-0.053615913
172	0xbe0470ca	-0.1293365
173	0x3d818a07	0.06325155
174	0xbdc51e1c	-0.096248835
175	0x3e09ff78	0.1347636
176	0x3dc8009f	0.097657435
177	0x3ccc494f	0.0249373
178	0xbe2f2e25	-0.17107446
179	0xbc98767b	-0.018611183
180	0xbb89633f	-0.0041927393
181	0xbc8f3999	-0.01748352
182	0xbdf73a61	-0.12071682
183	0x3d1782d9	0.03699002
184	0xbd644b28	-0.055735737
185	0xbd73bae9	-0.059504423
186	0xbd0567c1	-0.03256965
187	0xbd858fc0	-0.06521559
188	0xbe062415	-0.13099702
189	0x3ac2f6c3	0.0014874566
190	0xbee07fe1	-0.43847564
191	0xbe1ba49e	-0.15199515
192	0xbd95b58c	-0.07310018
193	0xbd682e97	-0.056685057
194	0xbe0e3cac	-0.13890332
195	0xbda4f6ea	-0.080549076
196	0xbe3f6f96	-0.1869491
197	0x3e8c6c9e	0.27426618
198	0xbc6ba9b8	-0.014383726
199	0xbd8067fc	-0.062698334
200	0x3c7cef22	0.015437873
201	0xbbbc025b	-0.0057375855
202	0xbd75ba88	-0.059992343
203	0x3c2d5f6f	0.010581835
204	0xbcec8478	-0.02887176
205	0x3ba1271b	0.004917992
206	0x3dd39f17	0.10333078
207	0x3d125388	0.035724193
208	0xbe073bf5	-0.13206466
209	0x3e0d1c3e	0.13780305
210	0xbe20eccd	-0.15715332
211	0x3e17b0f6	0.14813599
212	0x3d08458d	0.033269454
213	0x3c0cb740	0.008588612
214	0x3d29eaa6	0.041483544
215	0x3d8a4b49	0.06752641
216	0x3d8cd3c0	0.068763256
217	0xbd1e77eb	-0.03868858
218	0xbdc7221f	-0.09723305
219	0x3d48a4bf	0.04898524
220	0xbd9deb3e	-0.077108845
221	0xbdc2786e	-0.094956264
222	0xbdde86c2	-0.10865547
223	0x3d03482d	0.032051254
224	0x3e30d4e2	0.17268708
225	0x3c4a7a45	0.012358253
226	0x3db2c1ec	0.08728394
227	0xbd68078d	-0.056647826
228	0x3d67bc3f	0.05657601
229	0xbd99a0d3	-0.07501378
230	0x3c156eb4	0.009120632
231	0x3c1ebde6	0.00968883
232	0xbda5b030	-0.08090246
233	0x3ce1e94b	0.027577063
234	0xbe109c11	-0.14122035
235	0x3d68c809	0.056831393
236	0x3ce2e9d0	0.027699381
237	0x3ca3d3d4	0.019998468
238	0xbceb8857	-0.028751535
239	0x3e8e9b99	0.27853087
240	0x3daede45	0.08538488
241	0x3d9505cf	0.072764985
242	0xbe3cf98b	-0.18454568
243	0xbe6323ea	-0.22181669
244	0xbe5f3340	-0.21796894
245	0x3e130ee0	0.14361143
246	0xbdac2554	-0.08405557
247	0x3e18fc8c	0.14940089
248	0xbe79fa8b	-0.24411981
249	0xbe1be743	-0.15224938
250	0xbebd2d6b	-0.36948714
251	0x3d4d16b4	0.05007048
252	0xbb7704a5	-0.0037691977
253	0x3dbb1820	0.09135461
254	0x3ac158df	0.0014751217
255	0x3c8b0b44	0.016973145

conv2.bias f4 [32]
0	0x3cdd9943	0.02705062
1	0x3c7e645e	0.015526859
2	0xbcfe29fc	-0.03102588
3	0x3de88918	0.113542736
4	0xbd81d78f	-0.06339943
5	0xbce7672a	-0.028247435
6	0xbcac3d3d	-0.021025294
7	0x3d83b939	0.06431813
8	0xbaf71bbb	-0.0018852869
9	0xbb420faf	-0.00296114
10	0xbd879d7b	-0.06621834
11	0xbd166fb4	-0.036727622
12	0x3e1d1b97	0.15342556
13	0x3c5ea646	0.013589447
14	0x3d125267	0.035723116
15	0xbc9e7e68	-0.019347385
16	0x3d90638e	0.070502385
17	0xbcc13cac	-0.0235885
18	0x3cd15c68	0.025556758
19	0x3d7d7c2e	0.061886005
20	0x3d90367f	0.07041644
21	0xbd7c2ffd	-0.061569203
22	0x3cdab48d	0.026697421
23	0x3d9fb58c	0.07798299
24	0x3d1ed288	0.038774997
25	0x3def464d	0.11683331
26	0x3dbc7140	0.09201288
27	0x3d57b816	0.052665792
28	0xbc791e93	-0.015205043
29	0x3d82b9a4	0.063830644
30	0x3d9a9ae4	0.07549074
31	0x3d61fd1e	0.055173032

conv3.weight f4 [1, 32, 3, 3]
0	0x3e042c45	0.12907512
1	0xbe7ce4ec	-0.24696702
2	0x3e38e8de	0.18057582
3	0xbecad8fc	-0.3961867
4	0x3eca92fc	0.39565265
5	0x3e6da934	0.23209077
6	0x3de6f5ca	0.11277349
7	0xbde21906	-0.11039929
8	0x3d1a0521	0.037602548
9	0x3d94bd4d	0.07262669
10	0xbd50d8c3	-0.05098797
11	0x3bf91659	0.007601541
12	0x3db22167	0.08697777
13	0xbd2e1048	-0.042495996
14	0xbdb24628	-0.087047875
15	0x3d016054	0.031586006
16	0x3ccd84ab	0.025087675
17	0xbd6f52d0	-0.058428586
18	0xbd9c026c	-0.076176494
19	0xbd1aa1c1	-0.037751917
20	0xbd440b33	-0.047862243
21	0x3d3d83d1	0.046268288
22	0xbd3fb719	-0.046805475
23	0x3b37e5e5	0.0028060612
24	0xbd0e513c	-0.03474544
25	0x3c82075b	0.015872648
26	0x3d831cae	0.064019546
27	0xbcbe1a30	-0.023205847
28	0x3db8612d	0.0900291
29	0xbd63b42d	-0.05559175
30	0x3e853079	0.26013544
31	0x3e17ccfb	0.14824288
32	0xbda8ae00	-0.08236313
33	0x3d32f096	0.043686472
34	0x3dde27fc	0.1084747
35	0xbd61edf6	-0.055158578
36	0xbcc8fe4c	-0.02453532
37	0xbe0cba7f	-0.13743018
38	0xbd4f7801	-0.050651554
39	0x3d51a5ca	0.0511835
40	0xbc1363de	-0.008995978
41	0xbd60845b	-0.054813724
42	0x3da1a058	0.07891911
43	0x3d8a247e	0.067452416
44	0x3d9eb5b7	0.07749503
45	0xbee1246b	-0.43973097
46	0x3e0e220b	0.13880174
47	0x3cadc4d7	0.021212025
48	0xbf5dd56a	-0.8665377
49	0xbef8131f	-0.48452088
50	0x3e154a30	0.14579082
51	0x3d513f7e	0.05108594
52	0x3cd48f31	0.025947185
53	0x3ce1f25a	0.027581383
54	0xbc3509a9	-0.011049666
55	0xbe7c1c53	-0.2462018
56	0xbde05c0e	-0.10955058
57	0xbd60f606	-0.054922126
58	0xbec9c6d7	-0.39409515
59	0xbdcb9b74	-0.0994176
60	0x3be5205a	0.006992382
61	0x3c8d5994	0.017254628
62	0x3ba03dd6	0.004890184
63	0x3d20d8a4	0.039269105
64	0xbc33f6bf	-0.010984122
65	0x3bd74d4b	0.0065704933
66	0x3dc90e5a	0.098171905
67	0xbee640f2	-0.44971424
68	0x3e0253ca	0.12727275
69	0xbc70972e	-0.014684482
70	0x3d2c7825	0.042106766
71	0xbcd9caf3	-0.026586032
72	0x3cf1dc2d	0.029523933
73	0xbd249131	-0.040177528
74	0xbd572fa0	-0.052535653
75	0x3d08a80e	0.033363394
76	0x3c4829b5	0.012216975
77	0x3d57dd82	0.05270148
78	0x3cebce29	0.028784828
79	0xbc9234a4	-0.017847367
80	0xbd22a0f0	-0.039704263
81	0x3d34a3b3	0.04410143
82	0xbd16c191	-0.036805693
83	0x3adaf0ba	0.0016703822
84	0xbd0145cc	-0.031560704
85	0xbe469dbc	-0.19396108
86	0xbd5eb48a	-0.054371394
87	0xbcfea15e	-0.031082805
88	0x3d177ed4	0.036986187
89	0x3c84649c	0.016161256
90	0x3cab09fc	0.020878784
91	0xbd70bb35	-0.058772285
92	0xbd079f70	-0.033111036
93	0x3d36ed43	0.044659864
94	0x3bc594fa	0.0060297223
95	0x3d09a3ba	0.033603407
96	0xbd48a5a0	-0.048986077
97	0xbc92f04d	-0.01793685
98	0xbd649895	-0.055809576
99	0xbd1cc82d	-0.03827684
100	0xbcb4d298	-0.022073075
101	0xbbc07509	-0.0058733267
102	0xbe05c744	-0.13064295
103	0xbe8a527b	-0.27016053
104	0xbdc2fa05	-0.09520344
105	0xbdab0df8	-0.08352274
106	0xbe2a3b57	-0.16624199
107	0x3c648283	0.013947132
108	0x3c8f8ebf	0.017524121
109	0x3bcfc546	0.0063406555
110	0xbb547d9c	-0.0032423502
111	0x3cb2b803	0.02181626
112	0xbe3b5e3a	-0.18297663
113	0x3e51b546	0.20479307
114	0xb95c7471	-0.00021024213
115	0xbe18a527	-0.1490675
116	0x3dcba40e	0.099434
117	0x3c45cc78	0.012072675
118	0x3dc4e555	0.09614054
119	0x3cedcb2c	0.029027544
120	0x3bf29e63	0.007404135
121	0x3d118899	0.03553066
122	0xbd4d6cfe	-0.05015277
123	0x3d2956d5	0.041342575
124	0xbda5224c	-0.08063182
125	0x3d43a0d0	0.047760785
126	0xbcdeef9d	-0.027213866
127	0xbe70efaa	-0.23528925
128	0x3d30116b	0.04298536
129	0x3eaafe67	0.3339722
130	0x3d883e5e	0.066525206
131	0xbdb773f0	-0.0895766
132	0xbdd63c2e	-0.10460697
133	0xbe181e11	-0.1485522
134	0x3dd6d780	0.10490322
135	0x3d96b7f2	0.073593035
136	0xbd1ddb5c	-0.038539276
137	0x3cf63942	0.0300566
138	0x3dd32a1f	0.10310768
139	0x3d8a70f3	0.067598246
140	0x3ce09294	0.027413644
141	0xbda32bd8	-0.07967347
142	0xbc1b0bb6	-0.009463241
143	0x3d173a85	0.036921043
144	0xbd1dc038	-0.038513392
145	0x3c9f0184	0.019409902
146	0x3c6b445f	0.014359563
147	0x3e8526ca	0.26006156
148	0xbdc7cfa5	-0.09756402
149	0x3dc09019	0.094024844
150	0xbd3f6faf	-0.04673737
151	0x3c942b32	0.018087003
152	0x3d51294c	0.051064774
153	0x3ca8da96	0.020612042
154	0x3d914079	0.07092375
155	0x3c3b15e2	0.0114187915
156	0x3c012a37	0.0078836
157	0xbdd0865c	-0.10181877
158	0xbda8590e	-0.08220111
159	0xbc33ebd1	-0.010981516
160	0x3d9d22ee	0.07672678
161	0xbd61623d	-0.055025328
162	0x3b90d33a	0.0044197114
163	0x3d8b6146	0.06805663
164	0x3d874f65	0.0660694
165	0x3cf59a0a	0.029980678
166	0x3da0e0db	0.07855388
167	0x3d7de683	0.06198741
168	0x3d3fccc1	0.046826128
169	0xbd5b0a92	-0.053476878
170	0xbd515533	-0.051106643
171	0xbdb1d93d	-0.08684013
172	0x3ec1a579	0.37821558
173	0xbe97fd7e	-0.29685587
174	0xbe46215a	-0.1934866
175	0xbe13316b	-0.1437432
176	0xbea56d84	-0.32310116
177	0x3e19c910	0.15018106
178	0x3e71048e	0.23536894
179	0x3db2f64d	0.087383844
180	0x3d0eca20	0.03486073
181	0xbe415d28	-0.18883193
182	0xbe03607c	-0.12829775
183	0xbe3207cb	-0.17385785
184	0xbdc086c4	-0.094007045
185	0x3e133c5f	0.14378498
186	0xbdad323d	-0.08456848
187	0x3ef95011	0.48693898
188	0x3d57b197	0.052659597
189	0xbd5230c6	-0.051316045
190	0x3befef7f	0.0073222513
191	0xbd099584	-0.033589855
192	0xbde381a5	-0.11108712
193	0x3da57ecd	0.08080826
194	0xbd528b57	-0.051402416
195	0xbd7d706d	-0.061874796
196	0xbd4a2b00	-0.049357414
197	0x3ccf20a7	0.025284125
198	0xbd6bd9bf	-0.057580706
199	0x3e5bcb66	0.21464309
200	0xbd7c2e8f	-0.06156784
201	0x3e3d38a8	0.18478644
202	0xbcdc5c62	-0.02689952
203	0x3e888331	0.2666259
204	0x3da97401	0.08274079
205	0xbdd1c80a	-0.102432325
206	0x3dcbf831	0.09959448
207	0x3d094629	0.033514176
208	0xbd0f42ca	-0.034975804
209	0xbc05dbf8	-0.00817012
210	0x3b0aa597	0.0021155828
211	0x3e8b574c	0.2721504
212	0x3dd1eed1	0.10250629
213	0xbd11ccb1	-0.0355956
214	0xbe6d0a55	-0.23148473
215	0x3c5fdd6d	0.013663632
216	0x3cb5366e	0.02212068
217	0x3d6bc0f5	0.057557065
218	0x3d59329d	0.053026784
219	0x3d26d04a	0.040725984
220	0x3e30774d	0.1723301
221	0x3dd855e8	0.1056326
222	0x3d0ae3ca	0.033908643
223	0x3de85e7b	0.11346146
224	0x3d117ee6	0.03552141
225	0xbdacfe35	-0.08446924
226	0x3d6a6525	0.057225365
227	0x3b62fa09	0.0034633896
228	0xbbcab1e7	-0.0061857584
229	0x3dca449b	0.09876367
230	0x3d893bac	0.06700835
231	0xbdbb8094	-0.09155384
232	0x3cdcac9e	0.026937779
233	0xbcf9ba06	-0.03048421
234	0xbd0edb31	-0.034877006
235	0xbc3615d2	-0.011113601
236	0x3c0ebbc7	0.008711762
237	0xbd85d7ea	-0.06535323
238	0x3e0d64e9	0.13808025
239	0xbcbf3bb7	-0.023343904
240	0xbc29e38d	-0.010369194
241	0x3e121ba5	0.14268358
242	0x3d203204	0.0391102
243	0x3cfdf0eb	0.030998668
244	0x3e00d000	0.12579346
245	0xbb3a7371	-0.0028450156
246	0x3cc3b924	0.023891993
247	0xbe219b37	-0.15781866
248	0xbd4afc32	-0.04955692
249	0xbb98ceff	-0.0046633477
250	0x3deb63de	0.114936575
251	0xbbd1d52b	-0.0064035854
252	0xbd20902f	-0.039200004
253	0xbb933b3d	-0.0044931457
254	0x3970386d	0.00022909204
255	0xbdd63c3d	-0.10460708
